results/phase_diagram/HaldaneHamiltonian/M_-2.09_2.09_N100_data_set1/param_axes.npz (npz, 1464 bytes, 1 tensors)

axis_0_M f8 [100]
-2.0943951023931953 -2.052084090223636 -2.009773078054076 -1.9674620658845168 -1.9251510537149572 -1.8828400415453976 -1.8405290293758383 -1.7982180172062787
-1.7559070050367191 -1.7135959928671598 -1.6712849806976002 -1.6289739685280407 -1.5866629563584813 -1.5443519441889217 -1.5020409320193622 -1.4597299198498028
-1.4174189076802433 -1.3751078955106837 -1.3327968833411243 -1.2904858711715648 -1.2481748590020052 -1.2058638468324459 -1.1635528346628863 -1.1212418224933267
-1.0789308103237674 -1.0366197981542078 -0.9943087859846482 -0.9519977738150887 -0.9096867616455293 -0.8673757494759697 -0.8250647373064102 -0.7827537251368508
-0.7404427129672912 -0.6981317007977317 -0.6558206886281723 -0.6135096764586128 -0.5711986642890532 -0.5288876521194938 -0.4865766399499343 -0.4442656277803747
-0.40195461561081514 -0.3596436034412558 -0.3173325912716962 -0.27502157910213665 -0.2327105669325773 -0.19039955476301773 -0.14808854259345816 -0.10577753042389881
-0.06346651825433947 -0.021155506084779674 0.021155506084779674 0.06346651825433947 0.10577753042389881 0.14808854259345816 0.19039955476301795 0.2327105669325773
0.27502157910213665 0.31733259127169644 0.3596436034412558 0.40195461561081514 0.4442656277803749 0.4865766399499343 0.5288876521194936 0.5711986642890534
0.6135096764586128 0.6558206886281721 0.6981317007977319 0.7404427129672912 0.7827537251368506 0.8250647373064104 0.8673757494759697 0.9096867616455291
0.9519977738150889 0.9943087859846482 1.0366197981542076 1.0789308103237674 1.1212418224933267 1.163552834662886 1.2058638468324459 1.2481748590020052
1.290485871171565 1.3327968833411243 1.3751078955106837 1.4174189076802435 1.4597299198498028 1.5020409320193622 1.544351944188922 1.5866629563584813
1.6289739685280407 1.6712849806976005 1.7135959928671598 1.7559070050367191 1.798218017206279 1.8405290293758383 1.8828400415453976 1.925151053714957
1.9674620658845163 2.0097730780540766 2.052084090223636 2.0943951023931953
00000000: 6573 2d38 52c1 00c0 2d38 4110 ab6a 00c0
00000010: f4fc 54e8 0314 00c0 7883 d180 b97a ffbf
00000020: 070d f930 6bcd febf 9696 20e1 1c20 febf
00000030: 2620 4891 ce72 fdbf b5a9 6f41 80c5 fcbf
00000040: 4433 97f1 3118 fcbf d4bc bea1 e36a fbbf
00000050: 6346 e651 95bd fabf f2cf 0d02 4710 fabf
00000060: 8259 35b2 f862 f9bf 11e3 5c62 aab5 f8bf
00000070: a06c 8412 5c08 f8bf 30f6 abc2 0d5b f7bf
00000080: bf7f d372 bfad f6bf 4e09 fb22 7100 f6bf
00000090: de92 22d3 2253 f5bf 6d1c 4a83 d4a5 f4bf
000000a0: fca5 7133 86f8 f3bf 8c2f 99e3 374b f3bf
000000b0: 1bb9 c093 e99d f2bf aa42 e843 9bf0 f1bf
000000c0: 3acc 0ff4 4c43 f1bf c955 37a4 fe95 f0bf
000000d0: b0be bda8 60d1 efbf ced1 0c09 c476 eebf
000000e0: eee4 5b69 271c edbf 0cf8 aac9 8ac1 ebbf
000000f0: 2a0b fa29 ee66 eabf 4a1e 498a 510c e9bf
00000100: 6831 98ea b4b1 e7bf 8644 e74a 1857 e6bf
00000110: a657 36ab 7bfc e4bf c46a 850b dfa1 e3bf
00000120: e27d d46b 4247 e2bf 0291 23cc a5ec e0bf
00000130: 4048 e558 1224 dfbf 7c6e 8319 d96e dcbf
00000140: b894 21da 9fb9 d9bf f8ba bf9a 6604 d7bf
00000150: 34e1 5d5b 2d4f d4bf 7007 fc1b f499 d1bf
00000160: 605b 34b9 75c9 cdbf d8a7 703a 035f c8bf
00000170: 50f4 acbb 90f4 c2bf a081 d279 3c14 bbbf
00000180: a01a 4b7c 573f b0bf 00ce 0efb c9a9 95bf
00000190: 00ce 0efb c9a9 953f a01a 4b7c 573f b03f
000001a0: a081 d279 3c14 bb3f 50f4 acbb 90f4 c23f
000001b0: e0a7 703a 035f c83f 605b 34b9 75c9 cd3f
000001c0: 7007 fc1b f499 d13f 38e1 5d5b 2d4f d43f
000001d0: f8ba bf9a 6604 d73f b894 21da 9fb9 d93f
000001e0: 806e 8319 d96e dc3f 4048 e558 1224 df3f
000001f0: 0091 23cc a5ec e03f e47d d46b 4247 e23f
00000200: c46a 850b dfa1 e33f a457 36ab 7bfc e43f
00000210: 8844 e74a 1857 e63f 6831 98ea b4b1 e73f
00000220: 481e 498a 510c e93f 2c0b fa29 ee66 ea3f
00000230: 0cf8 aac9 8ac1 eb3f ece4 5b69 271c ed3f
00000240: d0d1 0c09 c476 ee3f b0be bda8 60d1 ef3f
00000250: c855 37a4 fe95 f03f 3acc 0ff4 4c43 f13f
00000260: aa42 e843 9bf0 f13f 1ab9 c093 e99d f23f
00000270: 8c2f 99e3 374b f33f fca5 7133 86f8 f33f
00000280: 6e1c 4a83 d4a5 f43f de92 22d3 2253 f53f
00000290: 4e09 fb22 7100 f63f c07f d372 bfad f63f
000002a0: 30f6 abc2 0d5b f73f a06c 8412 5c08 f83f
000002b0: 12e3 5c62 aab5 f83f 8259 35b2 f862 f93f
000002c0: f2cf 0d02 4710 fa3f 6446 e651 95bd fa3f
000002d0: d4bc bea1 e36a fb3f 4433 97f1 3118 fc3f
000002e0: b6a9 6f41 80c5 fc3f 2620 4891 ce72 fd3f
000002f0: 9696 20e1 1c20 fe3f 060d f930 6bcd fe3f
00000300: 7683 d180 b97a ff3f f5fc 54e8 0314 0040
00000310: 2d38 4110 ab6a 0040 6573 2d38 52c1 0040
