results/phase_diagram/HaldaneHamiltonian/M_-2.09_2.09-psi_-3.14_3.14_data_set1/param_axes.npz (npz, 1448 bytes, 2 tensors)

axis_0_M f8 [32]
0	0xc000c152382d7365	-2.0943951023931953
1	0xbfff592e799f5c07	-1.9592728377226665
2	0xbffd2fb882e3d144	-1.8241505730521377
3	0xbffb06428c284682	-1.6890283083816091
4	0xbff8dccc956cbbbf	-1.5539060437110803
5	0xbff6b3569eb130fc	-1.4187837790405515
6	0xbff489e0a7f5a63a	-1.283661514370023
7	0xbff2606ab13a1b77	-1.1485392496994942
8	0xbff036f4ba7e90b4	-1.0134169850289654
9	0xbfec1afd87860be2	-0.8782947203584366
10	0xbfe7c8119a0ef65c	-0.7431724556879078
11	0xbfe37525ac97e0d8	-0.6080501910173792
12	0xbfde44737e4196a4	-0.47292792634685044
13	0xbfd59e9ba3536b98	-0.33780566167632164
14	0xbfc9f18790ca8120	-0.20268339700579308
15	0xbfb14bafb5dc5600	-0.06756113233526406
16	0x3fb14bafb5dc5620	0.0675611323352645
17	0x3fc9f18790ca8120	0.20268339700579308
18	0x3fd59e9ba3536ba0	0.3378056616763221
19	0x3fde44737e4196a8	0.47292792634685066
20	0x3fe37525ac97e0dc	0.6080501910173797
21	0x3fe7c8119a0ef660	0.7431724556879082
22	0x3fec1afd87860be4	0.8782947203584368
23	0x3ff036f4ba7e90b6	1.0134169850289658
24	0x3ff2606ab13a1b78	1.1485392496994944
25	0x3ff489e0a7f5a63a	1.283661514370023
26	0x3ff6b3569eb130fe	1.418783779040552
27	0x3ff8dccc956cbbc0	1.5539060437110805
28	0x3ffb06428c284682	1.6890283083816091
29	0x3ffd2fb882e3d146	1.8241505730521381
30	0x3fff592e799f5c0a	1.9592728377226671
31	0x4000c152382d7365	2.0943951023931953

axis_1_psi f8 [32]
0	0xc00921fb54442d18	-3.141592653589793
1	0xc00782e2db378506	-2.938909256584
2	0xc005e3ca622adcf4	-2.736225859578207
3	0xc00444b1e91e34e2	-2.533542462572414
4	0xc002a59970118cd0	-2.330859065566621
5	0xc0010680f704e4be	-2.1281756685608277
6	0xbffeced0fbf07957	-1.9254922715550344
7	0xbffb90a009d72933	-1.7228088745492414
8	0xbff8526f17bdd90f	-1.5201254775434483
9	0xbff5143e25a488eb	-1.3174420805376552
10	0xbff1d60d338b38c6	-1.114758683531862
11	0xbfed2fb882e3d144	-0.9120752865260688
12	0xbfe6b3569eb130fc	-0.7093918895202758
13	0xbfe036f4ba7e90b4	-0.5067084925144827
14	0xbfd37525ac97e0d8	-0.3040250955086896
15	0xbfb9f18790ca8120	-0.10134169850289654
16	0x3fb9f18790ca8120	0.10134169850289654
17	0x3fd37525ac97e0d8	0.3040250955086896
18	0x3fe036f4ba7e90b4	0.5067084925144827
19	0x3fe6b3569eb130fc	0.7093918895202758
20	0x3fed2fb882e3d148	0.9120752865260693
21	0x3ff1d60d338b38c8	1.1147586835318624
22	0x3ff5143e25a488ec	1.3174420805376554
23	0x3ff8526f17bdd910	1.5201254775434485
24	0x3ffb90a009d72934	1.7228088745492416
25	0x3ffeced0fbf07958	1.9254922715550347
26	0x40010680f704e4be	2.1281756685608277
27	0x4002a59970118cd0	2.330859065566621
28	0x400444b1e91e34e2	2.533542462572414
29	0x4005e3ca622adcf4	2.736225859578207
30	0x400782e2db378506	2.938909256584
31	0x400921fb54442d18	3.141592653589793
