results/phase_diagram/ChiralHamiltonian/V_-10.00_10.00_N100_data_set1/param_axes.npz (npz, 1464 bytes, 1 tensors)

axis_0_V f8 [100]
-10.0 -9.797979797979798 -9.595959595959595 -9.393939393939394 -9.191919191919192 -8.98989898989899 -8.787878787878787 -8.585858585858587
-8.383838383838384 -8.181818181818182 -7.979797979797979 -7.777777777777778 -7.575757575757576 -7.373737373737374 -7.171717171717171 -6.96969696969697
-6.767676767676768 -6.565656565656566 -6.363636363636363 -6.161616161616162 -5.959595959595959 -5.757575757575758 -5.555555555555555 -5.353535353535354
-5.151515151515151 -4.94949494949495 -4.747474747474747 -4.545454545454546 -4.343434343434343 -4.141414141414142 -3.9393939393939394 -3.737373737373738
-3.5353535353535355 -3.333333333333333 -3.1313131313131315 -2.929292929292929 -2.7272727272727275 -2.525252525252525 -2.3232323232323235 -2.121212121212121
-1.9191919191919187 -1.717171717171718 -1.5151515151515156 -1.3131313131313131 -1.1111111111111107 -0.9090909090909101 -0.7070707070707076 -0.5050505050505052
-0.30303030303030276 -0.10101010101010033 0.10101010101010033 0.30303030303030276 0.5050505050505052 0.7070707070707076 0.9090909090909083 1.1111111111111107
1.3131313131313131 1.5151515151515156 1.7171717171717162 1.9191919191919187 2.121212121212121 2.3232323232323235 2.525252525252524 2.7272727272727266
2.929292929292929 3.1313131313131315 3.333333333333334 3.5353535353535346 3.737373737373737 3.9393939393939394 4.141414141414142 4.3434343434343425
4.545454545454545 4.747474747474747 4.94949494949495 5.1515151515151505 5.353535353535353 5.555555555555555 5.757575757575758 5.9595959595959584
6.161616161616163 6.363636363636363 6.565656565656564 6.767676767676768 6.969696969696969 7.171717171717173 7.373737373737374 7.575757575757574
7.777777777777779 7.979797979797979 8.18181818181818 8.383838383838384 8.585858585858585 8.787878787878789 8.98989898989899 9.19191919191919
9.393939393939394 9.595959595959595 9.7979797979798 10.0
00000000: 0000 0000 0000 24c0 4362 dece 9098 23c0
00000010: 86c4 bc9d 2131 23c0 ca26 9b6c b2c9 22c0
00000020: 0d89 793b 4362 22c0 50eb 570a d4fa 21c0
00000030: 934d 36d9 6493 21c0 d7af 14a8 f52b 21c0
00000040: 1a12 f376 86c4 20c0 5d74 d145 175d 20c0
00000050: 40ad 5f29 50eb 1fc0 c771 1cc7 711c 1fc0
00000060: 4e36 d964 934d 1ec0 d4fa 9502 b57e 1dc0
00000070: 5abf 52a0 d6af 1cc0 e183 0f3e f8e0 1bc0
00000080: 6848 ccdb 1912 1bc0 ee0c 8979 3b43 1ac0
00000090: 74d1 4517 5d74 19c0 fb95 02b5 7ea5 18c0
000000a0: 815a bf52 a0d6 17c0 081f 7cf0 c107 17c0
000000b0: 8ee3 388e e338 16c0 15a8 f52b 056a 15c0
000000c0: 9b6c b2c9 269b 14c0 2231 6f67 48cc 13c0
000000d0: a8f5 2b05 6afd 12c0 2fba e8a2 8b2e 12c0
000000e0: b57e a540 ad5f 11c0 3c43 62de ce90 10c0
000000f0: 840f 3ef8 e083 0fc0 9298 b733 24e6 0dc0
00000100: 9e21 316f 6748 0cc0 aaaa aaaa aaaa 0ac0
00000110: b833 24e6 ed0c 09c0 c4bc 9d21 316f 07c0
00000120: d245 175d 74d1 05c0 dece 9098 b733 04c0
00000130: ec57 0ad4 fa95 02c0 f8e0 830f 3ef8 00c0
00000140: 08d4 fa95 02b5 febf 28e6 ed0c 8979 fbbf
00000150: 40f8 e083 0f3e f8bf 580a d4fa 9502 f5bf
00000160: 701c c771 1cc7 f1bf 205d 74d1 4517 edbf
00000170: 5081 5abf 52a0 e6bf 80a5 40ad 5f29 e0bf
00000180: 6093 4d36 d964 d3bf 006f 6748 ccdb b9bf
00000190: 006f 6748 ccdb b93f 6093 4d36 d964 d33f
000001a0: 80a5 40ad 5f29 e03f 5081 5abf 52a0 e63f
000001b0: 105d 74d1 4517 ed3f 701c c771 1cc7 f13f
000001c0: 580a d4fa 9502 f53f 40f8 e083 0f3e f83f
000001d0: 20e6 ed0c 8979 fb3f 08d4 fa95 02b5 fe3f
000001e0: f8e0 830f 3ef8 0040 ec57 0ad4 fa95 0240
000001f0: dcce 9098 b733 0440 d045 175d 74d1 0540
00000200: c4bc 9d21 316f 0740 b833 24e6 ed0c 0940
00000210: acaa aaaa aaaa 0a40 9c21 316f 6748 0c40
00000220: 9098 b733 24e6 0d40 840f 3ef8 e083 0f40
00000230: 3c43 62de ce90 1040 b47e a540 ad5f 1140
00000240: 2eba e8a2 8b2e 1240 a8f5 2b05 6afd 1240
00000250: 2231 6f67 48cc 1340 9a6c b2c9 269b 1440
00000260: 14a8 f52b 056a 1540 8ee3 388e e338 1640
00000270: 081f 7cf0 c107 1740 805a bf52 a0d6 1740
00000280: fc95 02b5 7ea5 1840 74d1 4517 5d74 1940
00000290: ec0c 8979 3b43 1a40 6848 ccdb 1912 1b40
000002a0: e083 0f3e f8e0 1b40 5cbf 52a0 d6af 1c40
000002b0: d4fa 9502 b57e 1d40 4c36 d964 934d 1e40
000002c0: c871 1cc7 711c 1f40 40ad 5f29 50eb 1f40
000002d0: 5c74 d145 175d 2040 1a12 f376 86c4 2040
000002e0: d6af 14a8 f52b 2140 944d 36d9 6493 2140
000002f0: 50eb 570a d4fa 2140 0c89 793b 4362 2240
00000300: ca26 9b6c b2c9 2240 86c4 bc9d 2131 2340
00000310: 4462 dece 9098 2340 0000 0000 0000 2440
